…
2025-05-12 11:07:49,888 - INFO - Train subjects: [3, 4, 5, 7, 8, 10, 11, 12, 13, 15, 17, 18, 19, 20, 22]
2025-05-12 11:07:49,889 - INFO - Val subjects: [2, 16, 21]
2025-05-12 11:07:49,889 - INFO - Test subjects: [1, 6, 9, 14]
2025-05-12 11:13:53,095 - INFO - Froze 8 layers of the vision backbone
2025-05-12 11:13:53,109 - INFO - Initialized FaceEmotionClassifier with openai/clip-vit-large-patch14
2025-05-12 11:13:53,109 - INFO - Feature dimension: 1024
2025-05-12 11:13:54,181 - INFO - Model architecture:
FaceEmotionClassifier(
  (vision_model): CLIPVisionModel(
    (vision_model): CLIPVisionTransformer(
      (embeddings): CLIPVisionEmbeddings(
        (patch_embedding): Conv2d(3, 1024, kernel_size=(14, 14), stride=(14, 14), bias=False)
        (position_embedding): Embedding(257, 1024)
      )
      (pre_layrnorm): LayerNorm((1024,), eps=1e-05, elementwise_affine=True)
      (encoder): CLIPEncoder(
        (layers): ModuleList(
          (0-23): 24 x CLIPEncoderLayer(
            (self_attn): CLIPSdpaAttention(
              (k_proj): Linear(in_features=1024, out_features=1024, bias=True)
              (v_proj): Linear(in_features=1024, out_features=1024, bias=True)
              (q_proj): Linear(in_features=1024, out_features=1024, bias=True)
              (out_proj): Linear(in_features=1024, out_features=1024, bias=True)
            )
            (layer_norm1): LayerNorm((1024,), eps=1e-05, elementwise_affine=True)
            (mlp): CLIPMLP(
              (activation_fn): QuickGELUActivation()
              (fc1): Linear(in_features=1024, out_features=4096, bias=True)
              (fc2): Linear(in_features=4096, out_features=1024, bias=True)
            )
            (layer_norm2): LayerNorm((1024,), eps=1e-05, elementwise_affine=True)
          )
        )
      )
      (post_layernorm): LayerNorm((1024,), eps=1e-05, elementwise_affine=True)
    )
  )
  (classifier): Sequential(
    (0): Linear(in_features=1024, out_features=512, bias=True)
    (1): LayerNorm((512,), eps=1e-05, elementwise_affine=True)
    (2): GELU(approximate='none')
    (3): Dropout(p=0.3, inplace=False)
    (4): Linear(in_features=512, out_features=256, bias=True)
    (5): LayerNorm((256,), eps=1e-05, elementwise_affine=True)
    (6): GELU(approximate='none')
    (7): Dropout(p=0.2, inplace=False)
    (8): Linear(in_features=256, out_features=2, bias=True)
  )
  (projection): Sequential(
    (0): Linear(in_features=1024, out_features=512, bias=True)
    (1): LayerNorm((512,), eps=1e-05, elementwise_affine=True)
    (2): GELU(approximate='none')
    (3): Linear(in_features=512, out_features=256, bias=True)
  )
)
2025-05-12 11:20:56,024 - INFO - Using device: cuda
2025-05-12 11:20:57,217 - INFO - Loaded 880 samples with face data
2025-05-12 11:20:57,217 - INFO - Class distribution: {0: 400, 1: 480}
2025-05-12 11:20:57,217 - INFO - Class weights: {0: 1.1, 1: 0.9166666666666666}
2025-05-12 11:20:57,218 - INFO - Balanced classes: 880 -> 960 samples
2025-05-12 11:20:57,218 - INFO - Class distribution: {0: 480, 1: 480}
…
2025-05-12 11:48:44,533 - INFO - Train subjects: [3, 4, 5, 7, 8, 10, 11, 12, 13, 15, 17, 18, 19, 20, 22]
2025-05-12 11:48:44,533 - INFO - Val subjects: [2, 16, 21]
2025-05-12 11:48:44,534 - INFO - Test subjects: [1, 6, 9, 14]
2025-05-12 11:48:45,231 - INFO - Froze 4 layers of the vision backbone
2025-05-12 11:48:45,243 - INFO - Initialized FaceEmotionClassifier with openai/clip-vit-large-patch14
2025-05-12 11:48:45,244 - INFO - Feature dimension: 1024
2025-05-12 11:48:47,777 - INFO - Model architecture:
FaceEmotionClassifier(
  (vision_model): CLIPVisionModel(
    (vision_model): CLIPVisionTransformer(
      (embeddings): CLIPVisionEmbeddings(
        (patch_embedding): Conv2d(3, 1024, kernel_size=(14, 14), stride=(14, 14), bias=False)
        (position_embedding): Embedding(257, 1024)
      )
      (pre_layrnorm): LayerNorm((1024,), eps=1e-05, elementwise_affine=True)
      (encoder): CLIPEncoder(
        (layers): ModuleList(
          (0-23): 24 x CLIPEncoderLayer(
            (self_attn): CLIPSdpaAttention(
              (k_proj): Linear(in_features=1024, out_features=1024, bias=True)
              (v_proj): Linear(in_features=1024, out_features=1024, bias=True)
              (q_proj): Linear(in_features=1024, out_features=1024, bias=True)
              (out_proj): Linear(in_features=1024, out_features=1024, bias=True)
            )
            (layer_norm1): LayerNorm((1024,), eps=1e-05, elementwise_affine=True)
            (mlp): CLIPMLP(
              (activation_fn): QuickGELUActivation()
              (fc1): Linear(in_features=1024, out_features=4096, bias=True)
              (fc2): Linear(in_features=4096, out_features=1024, bias=True)
            )
            (layer_norm2): LayerNorm((1024,), eps=1e-05, elementwise_affine=True)
          )
        )
      )
      (post_layernorm): LayerNorm((1024,), eps=1e-05, elementwise_affine=True)
    )
  )
  (classifier): Sequential(
    (0): Linear(in_features=1024, out_features=512, bias=True)
    (1): LayerNorm((512,), eps=1e-05, elementwise_affine=True)
    (2): GELU(approximate='none')
    (3): Dropout(p=0.4, inplace=False)
    (4): Linear(in_features=512, out_features=256, bias=True)
    (5): LayerNorm((256,), eps=1e-05, elementwise_affine=True)
    (6): GELU(approximate='none')
    (7): Dropout(p=0.3, inplace=False)
    (8): Linear(in_features=256, out_features=2, bias=True)
  )
  (projection): Sequential(
    (0): Linear(in_features=1024, out_features=512, bias=True)
    (1): LayerNorm((512,), eps=1e-05, elementwise_affine=True)
    (2): GELU(approximate='none')
    (3): Dropout(p=0.2, inplace=False)
    (4): Linear(in_features=512, out_features=256, bias=True)
  )
  (aux_classifier): Sequential(
    (0): Linear(in_features=1024, out_features=256, bias=True)
    (1): LayerNorm((256,), eps=1e-05, elementwise_affine=True)
    (2): GELU(approximate='none')
    (3): Dropout(p=0.3, inplace=False)
    (4): Linear(in_features=256, out_features=2, bias=True)
  )
)
2025-05-12 11:49:25,689 - WARNING - Input feature dimension (768) doesn't match expected dimension (1024)
2025-05-12 11:49:25,690 - WARNING - Reconstructing classifier and projection heads to match input dimension
2025-05-12 11:49:59,726 - INFO - Prediction distribution: {0: 132}
2025-05-12 11:49:59,729 - INFO - Epoch 1/200:
2025-05-12 11:49:59,729 - INFO -   Train Loss: 0.9969, Acc: 0.4924, F1: 0.4085
…
